W1.npy (npy, 125568 bytes, 1 tensors)

array f8 [20, 784]
00000000: ea96 3027 b744 90bf e1f9 b6ae 0be5 85bf
00000010: d018 f785 2960 8e3f 68a5 adda 46e3 82bf
00000020: f6ea b6ce 1e99 943f ef95 c6b0 923b 90bf
00000030: ed9f dc1d d658 93bf d58a 680d 2c41 7abf
00000040: 69d9 06a7 2e1f 883f c801 adec 03a6 79bf
00000050: 35b1 025c 14c4 733f 6097 ad3c ab8b 923f
00000060: 25ca 1408 f1ca 6cbf ae4c ca5f 1c76 15bf
00000070: 46dd 8332 bcff 873f f43d 0147 9759 813f
00000080: 37d8 112a 28ed 6bbf 80bb 7318 812e 663f
00000090: 4714 07ff d20b 8a3f 53dd 5097 61d0 6f3f
000000a0: b10b 915f 29a6 8bbf bb07 476f 1d87 61bf
000000b0: a344 f6e2 08c4 883f ba26 6bff fec8 7c3f
000000c0: 6c79 c99b e372 7dbf 127e 1d92 dd72 6f3f
000000d0: 7abf db20 8f42 793f ba86 39eb 469a 663f
000000e0: 3f36 a005 74d8 5a3f 4356 7c9d 7b03 91bf
000000f0: 97ca bc0c a2e6 84bf c2e1 70ce 3556 80bf
00000100: 512f 5612 3fdf 65bf 1561 0d54 13cb 823f
00000110: 86a9 aad9 e148 7abf b0f9 0973 d69c 5d3f
00000120: 94dd af03 5946 5cbf 7f48 978f 44a0 81bf
00000130: c6e7 e891 7d10 573f 6ea3 2ca8 4fa6 87bf
00000140: f874 69a9 bb25 923f 759f b0e9 10f5 70bf
00000150: 5f52 7ae1 506d 973f 818c d133 98d8 8abf
00000160: 7683 d184 83f7 6cbf daee 7b21 6993 64bf
00000170: 1677 a043 7d25 833f 8722 8471 8fbb 53bf
00000180: f479 4406 4cb6 913f 1fa2 7980 63e1 7c3f
00000190: 33d1 92eb 7e56 80bf c69f 2daf 6229 803f
000001a0: 5022 f00e f95c 88bf 89d1 bb1a 2242 8abf
000001b0: fe2c 0492 c79b 813f ae9f acfd 5740 743f
000001c0: 33cc 69be 3d36 8bbf 8f1d 4a40 f478 80bf
000001d0: 9d75 3821 0957 75bf a038 1ab4 b9aa 4bbf
000001e0: b60a df5b 01bb 843f 3d9f 53bf 63e8 7f3f
000001f0: e2c5 ee31 d8e4 83bf 2587 275c 2331 6c3f
00000200: ae76 2a1c e3fa 8cbf 9104 c15c 16a0 8f3f
00000210: 3e2d 8ffc 4f61 833f 3526 c0b8 15ee 723f
00000220: 6772 7b7d a1fe 233f 5833 78c4 327e 78bf
00000230: 4428 ae51 6527 78bf 7dca b71d 254c 80bf
00000240: 30ea 81c3 8fe4 823f b488 8865 bb11 77bf
00000250: 7afc 99dd 39d8 813f 76e9 86ea 93bc 78bf
00000260: 6dcc e727 5e6c 883f 65f8 0132 d369 6a3f
00000270: 8c5e d7fd e9de 793f fda1 73e2 a83a 743f
00000280: 367b 07fd f687 86bf fd5e b886 7a66 60bf
00000290: f16d 27f8 6f3b 903f 03fb 3558 824c 73bf
000002a0: 80f9 6302 c9a7 76bf d0e5 0ea5 4c7d 4e3f
000002b0: 250e b1c2 9132 673f 5e8f 943d 6c4a 92bf
000002c0: ac95 2064 668b 913f 54a7 0ecf 831b 813f
000002d0: 8b3c e36d 0a99 7b3f 9a24 b69a 4f97 86bf
000002e0: 744b 917a e9c4 573f b001 b9d6 174c 7abf
000002f0: a633 1f45 4d9b 853f f329 3c3c 61c0 773f
00000300: 57e2 a000 6749 97bf 36a3 5c64 e06f 4abf
00000310: 630f a70c 31f8 81bf 88b3 399b 1f96 b7be
00000320: 9dbb d9e2 ac17 5e3f e05f e35d 8319 97bf
00000330: 325d 9545 814e 753f ae58 102a fef4 93bf
00000340: 2bfd d77e e647 87bf b0ed 6c13 6a09 66bf
00000350: 0e5e fdf6 d864 743f e266 fd6b 29db 513f
00000360: 761b ec07 4354 97bf fb3e 8548 7056 703f
00000370: 57c9 5be5 e2e5 8d3f 8e10 20ae 76b3 74bf
00000380: 4f8c cfa7 e000 72bf 049c a61a a820 78bf
00000390: 6296 8067 e17f 59bf 58c1 646b 674e 913f
000003a0: a186 11fe 8604 893f 7d33 313e dbc2 71bf
000003b0: ec73 637d 05b8 8bbf a24b 2c9b 6b19 733f
000003c0: 4ad3 9a9e fd6c 90bf b1d3 8c33 341e 83bf
000003d0: 34f3 af10 2775 99bf 3eb9 d43a 344d 7cbf
000003e0: 6e1a 8c7c 764b 73bf 4c72 8103 e686 6cbf
000003f0: c465 8b2a c960 693f 16c1 0aee f70b 563f
00000400: 222b e04a 18b8 87bf 8cad 943a af56 973f
00000410: 132e 88cc 0d99 64bf 4a8a ceef e441 7e3f
00000420: b692 3add 823c 7bbf e131 7da1 6755 533f
00000430: 4d0f 268b 11ca 8b3f 159e 72dc 5d50 6e3f
00000440: fd1a b26c 71e7 723f 8c0e 43aa 8680 893f
00000450: d031 28ac 0c4e 6f3f 44b6 1995 b047 953f
00000460: ee99 f8b8 ddfd 713f 32eb 057b 1b81 9d3f
00000470: 349a 8ed8 0f8e 7a3f 1e49 264a a481 883f
00000480: 53a7 2061 a5be 94bf 2741 c441 54ac 60bf
00000490: eaa0 8f92 2dcc 84bf c79f a59d 4a8c 86bf
000004a0: bff9 02d4 8300 8cbf 942f d6d1 1a86 74bf
000004b0: cc49 bf52 7409 843f 18d9 7906 2f1c 57bf
000004c0: 4fbb 1869 e85c 873f 27c3 a963 6313 833f
000004d0: a766 ab7b bb86 66bf ef2d d412 8e2c 79bf
000004e0: b17c d330 c852 893f ed80 4f8f 3089 913f
000004f0: fef6 6ae5 8c8d 753f ead8 aea2 3855 723f
00000500: 1aa7 0a13 efe9 893f 1a7f 7175 c911 7e3f
00000510: a8cc 02d5 e9e0 993f 13ac 14b0 4d89 893f
00000520: 875c 092f 6447 25bf 8894 cefb a414 6d3f
00000530: f981 6d98 ce73 883f a6bc 0456 b0eb 8c3f
00000540: aeca 7ee0 04b2 45bf 2bfd 9b97 cd60 81bf
00000550: dec9 da1d 9f0e 70bf 9170 93de 87c3 54bf
00000560: 97c3 07ba a74f 8fbf 5c24 c740 cf5d 83bf
00000570: 9eb6 b686 3c28 60bf 4a4d c9eb 38a1 6dbf
00000580: 0c8f c03a 7ebb 82bf 1224 9a96 012d 6c3f
00000590: f969 ae56 fff2 83bf 7b14 f149 6d70 833f
000005a0: 867b c420 d380 47bf 5aa3 4619 044b 593f
000005b0: 92c5 3a36 9307 76bf 3c11 5e29 6c22 973f
000005c0: 7154 d42a 0d0f 5a3f dc42 701a 44b8 923f
000005d0: eb8e f1d6 3633 a13f abc3 fe75 b961 943f
000005e0: 908e 19ae c179 59bf bced 5fb4 9fcc 84bf
000005f0: b27d 1733 ee7c 783f e47b 9f5a c06a 993f
00000600: e4fe d06b 2efc 3cbf 1b03 3bbf 42ee 813f
00000610: 07ee eb4c 4b3e 813f 0ec2 e97c f3c9 7d3f
00000620: 9c84 48d8 8680 69bf 5957 83fd bf60 873f
00000630: 7a2c 1c4e 399a 95bf db59 02ef 9dbf 88bf
00000640: add3 621c 2f2b 86bf 305b e695 a20d 7dbf
00000650: 6373 d7dc ec24 80bf 7d0c 8f68 2347 753f
00000660: d9cb b394 522f 7abf 6e01 7873 2543 6b3f
00000670: 5db2 88af a9d9 853f b7fb 7c53 c60c 6d3f
00000680: 63a8 0ffe 1113 643f aa73 cd0c 3e4b 5e3f
00000690: 30d7 7fa7 8434 953f 49ed b0f4 9a52 8f3f
000006a0: d2fb 3140 d96e 993f 410e cb76 694a a33f
000006b0: f980 179e 9f2f 9a3f 521d 0b35 ffec 9b3f
000006c0: ec00 44cc fac9 903f 0905 d171 31b4 933f
000006d0: f430 926f 305d 653f 08b9 6243 39a8 543f
000006e0: a2c0 74fc f95e 543f 9b5c 1d4e e551 6e3f
000006f0: 61ce 8a0c 93c9 723f 1907 ca07 7ca0 7dbf
00000700: 81d1 e47d 474a 8ebf 4758 c4f8 d884 563f
00000710: 6a69 6a23 ed23 513f 1c7e 907b ea08 6c3f
00000720: 4312 6c54 7a85 83bf 8bad 4dd3 f09d 84bf
00000730: f43f 3111 2e0a 313f 717c c57f e05e 673f
00000740: b7ee e568 8766 7d3f e536 b90e a8b6 8a3f
00000750: 493c 7d7e 782e 813f 8630 2e01 1aa8 883f
00000760: 828a be63 c0d2 8a3f f7d0 ae7e e61d 633f
00000770: 11f1 f225 9218 823f d054 b777 f6eb 853f
00000780: 0cc6 9b5f de1e a83f 4844 6ec0 1e26 823f
00000790: 26cc af55 89a9 9e3f 5738 db69 bc69 71bf
000007a0: 30b9 4c4e a24e 7a3f 71c1 04aa d26b 79bf
000007b0: c6a2 369d 8d6f 633f 7b53 1b84 b835 863f
000007c0: 1098 3a63 b138 923f a7b4 e388 22c6 7a3f
000007d0: e20e 633c 8f60 54bf 28dc 4c4b 6f50 853f
000007e0: 9ca4 04cd a6fa 88bf 70c0 d9f4 4087 833f
000007f0: 9656 6d8b 19db 89bf f395 33e9 c337 783f
-0.015887128607707725 -0.010690776128169101 0.014831852341455593 -0.00922255854466654 0.020115357748845285 -0.015852252997907653 -0.0188935714460569 -0.006409809188456979
0.011778225395443003 -0.006261840181480634 0.00482566788575083 0.01811091955041577 -0.0035147388122365336 -8.186863119368184e-05 0.011718244830702173 0.00847166238250361
-0.0034089836558975034 0.0027077218434138906 0.01271786537916787 0.003883543593953634 -0.013500521878205026 -0.0021396231552168444 0.012092656542139152 0.007027622303846287
-0.007189644904967412 0.003838951831241174 0.006166991324548005 0.002759111894008762 0.001638520529471235 -0.016614848601497433 -0.010205522550312636 -0.007976932871415768
-0.0026699287288404557 0.00917639827973508 -0.0064171621585650315 0.0018074125511301324 -0.0017257565766593862 -0.008606467849777253 0.0014077402371541633 -0.011547682113432347
0.017722065177044194 -0.004139963212800403 0.022877944719385087 -0.013108433801056531 -0.0035359925009718586 -0.002511697133625518 0.009348848940188097 -0.0012043858351395169
0.017296970255410174 0.007050884894490155 -0.007977477611668426 0.007891436549201002 -0.01189608170354109 -0.012821451607558003 0.0085979072032587 0.004944175447953043
-0.013287050603343875 -0.008043201648674251 -0.005209956801562579 -0.0008443266635411902 0.010122309318722027 0.007789983404314968 -0.009713830016923223 0.0034413996338437274
-0.014150404259733431 0.015442061143519122 0.009462952513692554 0.004621586656875777 0.00015254708590974332 -0.005979727087390106 -0.0058969457412648175 -0.007957735032481534
0.009225009111323151 -0.005632144945169216 0.008713199687234264 -0.006039216801975269 0.011925445168321691 0.0032242894085916956 0.006316103009758611 0.0049387547544275075
-0.01100151977237616 -0.0020019906130633856 0.01585173561202952 -0.004711636694422652 -0.005531106178976564 0.0009304641954407892 0.002831730545524785 -0.01786202550751114
0.017133331166538632 0.008353261715302963 0.0067377478973888 -0.011030790242118994 0.0014507560793119685 -0.006420224304350006 0.01055012099450343 0.005798702073443784
-0.02274094525657441 -0.0008067937530756633 -0.00877416915762525 -1.4058601721892063e-06 0.0018366993275795503 -0.022558262448768462 0.005201821296700703 -0.019489260976194238
-0.011367607828104717 -0.0026900359911487745 0.004978988188518508 0.0010898499021635912 -0.022782370909250692 0.003988684279036421 0.014598629593341057 -0.005053962320747852
-0.004395368156994441 -0.0058905188147155875 -0.0015563679899143414 0.016900649957450525 0.012215666416696637 -0.00433622018597368 -0.013534586800625768 0.004662914597036856
-0.016040766530483176 -0.009334953139480935 -0.02486096419669366 -0.006909564993561821 -0.004710638845387123 -0.0034822933630905047 0.003097908880914631 0.0013456269445378303
-0.011581601891540286 0.02279161257790245 -0.002514388037757839 0.007387060436402646 -0.006649504841025935 0.0011800300616925318 0.013569008883457601 0.003700431177623429
0.004615252556624536 0.012452175208074644 0.003821396590188743 0.020781287289017195 0.0043924962078904905 0.028812817939505915 0.006483137033603859 0.011966022026886732
-0.020258506825633415 -0.0020352979319186062 -0.010155063662708536 -0.011009772239688588 -0.013672857196408537 -0.005010704769471536 0.009783657813305612 -0.001410528109685288
0.0114076764176311 0.009314323882081489 -0.0027497922686564205 -0.006146006560139735 0.012364925375037169 0.01712489962290047 0.005261946082723899 0.004475804550500432
0.012653224724391832 0.007341181705754507 0.02527203905692646 0.012468916832025589 -0.0001623449129677138 0.00354988311160526 0.011939634348608218 0.01412141573436394
-0.000662090665164724 -0.008485418500184657 -0.003920194196029373 -0.0012673212861989173 -0.015288648953147006 -0.009456271328320102 -0.001972311225208425 -0.003616915868670444
-0.009146677177404715 0.00343942938053888 -0.009740824539950831 0.009491781062147311 -0.0007172614000728751 0.0015437641169262135 -0.005378317877032928 0.022592248940342716
0.001590502604192492 0.0182810441147606 0.03359385846922954 0.019904039217809515 -0.0015549079329496875 -0.010155914013003968 0.005978517977808394 0.024821286708057402
-0.00044227727250144137 0.008755227528469292 0.008419597897492371 0.007272673725865276 -0.0031130441368679273 0.011415004657844884 -0.021096129791697817 -0.012084230286103661
-0.010824554494641559 -0.007093081569471235 -0.007882929315138737 0.0051947959081558555 -0.006392786580579257 0.0033279162851160204 0.010669065160152142 0.003546130519594705
0.0024504996695116506 0.001848993869507635 0.020708153460837042 0.015294275848751442 0.024836916487853085 0.037677093268510216 0.025572294258268766 0.02727125893832511
0.016395491330514142 0.019242069789702252 0.0026079126369663534 0.0012608107768233307 0.001243347289186438 0.0037011602989128318 0.00458676758778473 -0.0072331280649693625
-0.014790113954042951 0.0013744467606264953 0.001046163158810199 0.0034222202052800587 -0.009531932546004934 -0.010066873024434006 0.0002600061863562424 0.002852858042544031
0.007177857345933062 0.013043702077222228 0.00838941703810127 0.012039378319762994 0.013097289127306459 0.0023335935452114503 0.008835927756415647 0.01070396950573596
0.04711050908180078 0.008861770865936106 0.029943605284597073 -0.004251228323211085 0.006422647483118646 -0.006206343561914061 0.0023725286389047777 0.010844651729181134
0.017794391328287473 0.006536612416522625 -0.0012437247074083492 0.010407323346596511 -0.012196829921395307 0.009535319778678025 -0.012624930922963611 0.005912556912539102
