W2.npy (npy, 3328 bytes, 1 tensors)

array f8 [20, 20]
0.03222848018372676 -0.02073538122532378 -0.0646311029493626 0.0003561447114117901 0.026427224178442798 0.0009026638649969597 -0.03624091831641165 -0.03225188858666025
-0.025292442836622606 0.05846008002656192 0.06458809709738449 0.002166682130409535 -0.12887838963349058 -0.06434624056471805 -0.021218552100030593 -0.028329562361892376
0.07561980604816887 -0.012920094581345383 0.014398188298142791 -0.050142478684976455 -0.010144274858235314 -0.08380002991866103 -0.012323092557162556 -0.021128943665008188
-0.019962570898951593 -0.052133445552125096 -0.007618714666850472 -0.0656155631793993 0.0033432068235708474 -0.07899423852052487 0.075101513272516 0.07650523235941738
0.016986990826185884 0.028498630514170967 -0.013382737491801399 -0.09515908260080612 0.13040543460997817 -0.006555725651815979 0.042518715619195256 0.06927738414945256
-0.0021799711434307583 0.008337999490174738 -0.024727507111979696 0.030874689441221296 -0.009547659384056007 -0.00229675329685024 -0.011062276612986038 0.07685058334260504
-0.01009926846007511 0.03664805734972111 -0.0053216912865146114 -0.023542613803960864 -0.0692401182105196 0.10532033249212888 0.003522671335803494 0.07890864535884735
-0.032069991026236595 -0.008575864325543768 -0.005166319069990369 0.07255864914984077 -0.003801632964801553 -0.003033675241554318 -0.008188556539187987 0.00492480492282343
0.007024261922833887 -0.0024684378614168406 -0.018517036678370978 -0.001298583680535569 -0.0043670496076936025 -0.0089889557150132 -0.0018086195226643788 -0.010831162650033515
0.007392098445006437 -0.009631726395607663 0.013247733954512602 -0.0018912024033092046 -0.01948814568131152 -0.018647269695618217 -0.02175223438845783 -0.005323632972925869
0.010225328766364443 0.09864899954010209 -0.07251756784683538 -0.0891597909823137 -0.0298352114251601 0.024783603682332872 0.07007054960730338 0.14604422704967548
-0.03263696097233453 -0.03121686284369434 -0.0410245602601993 0.00963994785881329 -0.023017269754645162 -0.16460421319294763 0.05323828796921887 0.004715133643894703
-0.012094906818243675 0.00036222978798476613 -0.10055034429252888 0.15008937380249285 -0.02388877141258264 0.0007498632544071021 0.012183902674938097 0.01123548661533886
-0.048340812020939504 0.03303641492214461 0.0011821042681437726 0.01667921206328219 -0.01550549675593807 0.045889007459448856 0.020747165625173727 0.09148671266350561
-0.07384772985027509 0.03249388808799712 -0.029017549947016445 0.08896980689269282 -0.01095979159468072 0.011936976364694296 0.0854926554990028 -0.0069648829761088885
-0.014087156852031987 -0.01267867052729195 -0.0021601331515244473 0.08875967094304955 -0.029274344136237467 -0.03385341466888275 -0.0061301443223547416 0.06857888006424485
-0.005842084856089787 -0.025796006109002463 -0.0285588564161723 -0.08960335849459475 -0.01958355195452216 -0.022624872425997127 0.030598112165025074 -0.04455296699259632
0.15379327481051702 8.399506702538364e-05 -0.03913513216997365 0.04264201371182538 0.001885096821805937 0.10842862487679784 -0.035123385665358615 -0.07571708374177809
0.06128200378094103 0.006755123836792411 0.029518607901838186 0.01627690533154128 0.003322265503646215 0.007491580391040453 -0.040664602645400685 0.035582250757621246
0.034636885318933844 -0.0021309135253934895 0.009311883840214287 0.164227860481387 -0.006562808270228795 0.02038850084805069 -0.07557241537924551 0.012938876324669066
0.1802890196237971 0.02810723975503494 -0.02373840418966989 -0.05040588680047725 0.0637966018282394 0.015088338144375033 0.012398384935270568 -0.05353463981302518
-0.00794944826180805 -0.050697509007600866 -0.04097735763099029 0.02401648695845888 0.08350680250960613 -0.0679643925386122 0.005646246398499988 -0.009147291821606804
0.007082467311723039 -0.004127080962382978 0.017451884047575045 -0.03230410875486366 -0.08424605324772125 -0.019311408805718005 0.05151403680135022 -0.0013980347367023864
-0.06533796736257498 0.006440459635096963 0.012480669289806658 0.08569240750902642 -0.008295100792356003 0.020121913930636424 -0.027760860339211997 0.1294483138572061
0.06886859334199255 -0.1050979082218347 -0.0012783454451741941 -0.02108815452512458 -0.10661830219091742 0.019540681478298662 0.03484084048846213 0.009939003388799704
0.037913647383266774 0.009627024218351687 -0.0047638613979541 0.007392732298851166 0.05791317490213507 0.004004813167465996 0.02570446797192877 -0.03350941232208758
0.0008874825267145389 -0.04528790294813912 -0.06496652272538252 -0.07026262595116706 0.0774858559738936 0.10594537920061199 0.021398412631271315 0.06394561359733456
0.03314528582442643 0.0018266882669776322 -0.059662408469022606 0.009790340633273262 -0.035360829861393606 -0.051414028203829364 -0.04644507585088937 0.028092032660107676
-0.04223980160318554 -0.010197252800967779 0.023324991398029557 -0.07637102676015231 0.004147874448084922 0.0073283741128186 -0.014033003951657966 0.12177308917215367
-0.01686039262002607 0.006407662195899901 0.01211902098943474 -0.0373142829189029 0.004245481586912337 0.016980209422107644 0.03346852837989551 0.06288525128122034
0.06397060300675837 -0.04196526220973922 -0.06541311158187264 -0.07621185417493379 0.007405850718663167 0.016514341614694828 0.033249691439636214 -0.1184067289528929
-0.01092954872255818 0.0032080611655242214 -0.08120623608284742 0.06479841268260507 -0.004609979548544599 0.10002262473005671 0.003083863028933344 0.06641486560789811
00000000: a81c c758 4080 a03f 5772 eee0 a73b 95bf
00000010: d9cf 78f9 a98b b0bf c641 5ee3 1d57 373f
00000020: e329 48fe bc0f 9b3f f5c8 c4e3 1794 4d3f
00000030: 8359 e46d 2b8e a2bf bb89 6dcd 5183 a0bf
00000040: c9e7 461b 43e6 99bf 34d7 abc7 7aee ad3f
00000050: e37f be74 d888 b03f 638d 829c dcbf 613f
00000060: ce88 514a 167f c0bf 4894 d8c6 fe78 b0bf
00000070: cf37 5aed 50ba 95bf efd2 6abf 6c02 9dbf
00000080: a820 e8d1 d15b b33f 513d 81bd d975 8abf
00000090: 0ebb e51e cc7c 8d3f a048 2f64 46ac a9bf
000000a0: 3ae2 0f86 85c6 84bf 648b e733 eb73 b5bf
000000b0: b614 267c d93c 89bf c533 2968 d3a2 95bf
000000c0: e0cc 9e74 1171 94bf 542d 5927 3cb1 aabf
000000d0: eb8d 4e25 cd34 7fbf ffd1 f679 2ecc b0bf
000000e0: 5670 127f 3663 6b3f bea0 0467 f738 b4bf
000000f0: 77b4 624f da39 b33f 55e2 f4ce d895 b33f
00000100: 3243 39a8 0965 913f 7417 28b8 be2e 9d3f
00000110: f9ac dd9e 6868 8bbf 4b15 b07b 585c b8bf
00000120: 4a6d 6f12 20b1 c03f a5e5 6a34 2dda 7abf
00000130: fbcf 1a5a 03c5 a53f 543a 46a3 29bc b13f
00000140: 6562 8d18 bbdb 61bf 2bb3 fe58 8313 813f
00000150: 4324 6ee9 2a52 99bf 0162 b255 9d9d 9f3f
00000160: 8783 7626 b98d 83bf 66a1 8009 a4d0 62bf
00000170: a338 2da2 d1a7 86bf 1590 22d6 7aac b33f
00000180: 6f12 ffdd ecae 84bf 12d7 8ebf 88c3 a23f
00000190: 0550 8fa0 32cc 75bf 69c7 6611 8e1b 98bf
000001a0: 130d 496b b8b9 b1bf 8654 a8f7 45f6 ba3f
000001b0: b092 d1c5 93db 6c3f f91a 3063 5b33 b43f
000001c0: c909 4855 7a6b a0bf 6c51 8106 3990 81bf
000001d0: b715 2437 4729 75bf 17f8 2321 3493 b23f
000001e0: 56bf 2a28 9a24 6fbf 4186 5ffe 13da 68bf
000001f0: a14e 4c74 29c5 80bf fcc3 5241 082c 743f
00000200: 7533 cbf3 78c5 7c3f 3740 627c b038 64bf
00000210: 564b cf4b 21f6 92bf 95e5 189c a746 55bf
00000220: 61bd ebf3 2ee3 71bf abc3 9136 cd68 82bf
00000230: 3419 d96c e6a1 5dbf 165c e00a a62e 86bf
00000240: 0331 1f51 2d47 7e3f 9f38 fc6e ccb9 83bf
00000250: 365b a5c0 a021 8b3f 15a6 3a1e 47fc 5ebf
00000260: 2094 7151 b3f4 93bf d66d 0216 4518 93bf
00000270: 98df 40bd 3746 96bf 3be6 3bd8 3bce 75bf
00000280: dc99 2365 04f1 843f c0cf ce92 0f41 b93f
00000290: 68a1 49e6 8290 b2bf b521 6312 2dd3 b6bf
000002a0: bf79 5c25 1f8d 9ebf 18ab 2b7d df60 993f
000002b0: 96e2 f9be 24f0 b13f 9556 79c5 93b1 c23f
000002c0: e7b4 08b0 cab5 a0bf 6e52 fd33 50f7 9fbf
000002d0: 01f9 4cd1 2b01 a5bf 465b 4fe6 1bbe 833f
000002e0: 898e 5bd3 d691 97bf 6548 3938 c011 c5bf
000002f0: 2816 7283 0c42 ab3f 46ae bf0c 2d50 733f
00000300: 8b35 dce9 36c5 88bf fcea d017 35bd 373f
00000310: 0284 56d8 aabd b9bf cfba faeb 2036 c33f
00000320: 89ab d54f 4c76 98bf 3835 bb13 4f92 483f
00000330: cd48 36bc dff3 883f 254b 8a7c a102 873f
00000340: 4b50 627d 20c0 a8bf 72dc 5523 26ea a03f
00000350: 7855 04cb 1a5e 533f cae1 56f9 5a14 913f
00000360: 90c6 cc8b 58c1 8fbf f986 9194 c37e a73f
00000370: 9717 61b7 be3e 953f b886 e856 ac6b b73f
00000380: ff3c 9750 afe7 b2bf 4ecf 50f5 09a3 a03f
00000390: 0143 21d0 c6b6 9dbf 4680 efaa b9c6 b63f
000003a0: 31d3 c253 1672 86bf d3bf cbd8 6972 883f
000003b0: f399 6abf d8e2 b53f 1a4b a589 3587 7cbf
000003c0: 7ee8 c82f bad9 8cbf a8fc 2b5a 46f7 89bf
000003d0: 50a8 b4a7 20b2 61bf 5d74 e72b f4b8 b63f
000003e0: ae3c b5fa 17fa 9dbf e8b7 b819 3c55 a1bf
000003f0: 2dfc 2516 ec1b 79bf 317e 12af 628e b13f
00000400: c898 5bb6 deed 77bf a21d 6caa 446a 9abf
00000410: 4444 4669 883e 9dbf 9e96 58e6 3ef0 b6bf
00000420: 309c bcec b50d 94bf 6b54 957c f92a 97bf
00000430: e4c1 458c 1c55 9f3f 598f 5880 a5cf a6bf
00000440: e6f4 d37e 7faf c33f 911e 7b43 d004 163f
00000450: 8edf 9621 8509 a4bf 0cdf a78c 2cd5 a53f
00000460: 19ca c34c abe2 5e3f 21cd cb75 fac1 bb3f
00000470: 69d8 8341 b1fb a1bf c75f 6bde 3162 b3bf
00000480: 6b1d 25d4 5a60 af3f dbeb 59bf 42ab 7b3f
00000490: 8f53 3f3e 203a 9e3f 89f4 50a0 e4aa 903f
000004a0: e52d fab5 4b37 6b3f e6e1 65cc 7daf 7e3f
000004b0: 7a04 efa4 fdd1 a4bf 53e4 a436 d637 a23f
000004c0: 2239 5c03 edbb a13f bd91 de7c d974 61bf
000004d0: 3485 76e4 1b12 833f a207 ee24 6b05 c53f
000004e0: 69b2 3f6e 9ae1 7abf 0869 6d21 b9e0 943f
000004f0: 2799 88bc b658 b3bf 45a2 4a95 b27f 8a3f
00000500: a559 8ee9 b513 c73f 2365 1dee 24c8 9c3f
00000510: e28d 9d56 e14e 98bf 98f8 aae6 ccce a9bf
00000520: aebe 725e f954 b03f b873 0c77 a2e6 8e3f
00000530: 40c8 8f0e 5364 893f 3d71 666e e468 abbf
00000540: e317 72e2 cc47 80bf 7445 5a1e 06f5 a9bf
00000550: 6d9e cdf5 fbfa a4bf f29f 3428 c797 983f
00000560: bcb4 c5a9 b360 b53f c0ef 3e4b 1d66 b1bf
00000570: 8d06 07ba 8420 773f cb22 c4b9 d0bb 82bf
00000580: 9953 a957 8102 7d3f d99b 2edc 8ee7 70bf
00000590: 05a1 f31c e8de 913f 7fd3 4105 2a8a a0bf
000005a0: 061b 843b 2691 b5bf bb7d 0ab5 5ec6 93bf
000005b0: dc87 b13e 0c60 aa3f 827f 425e c8e7 56bf
000005c0: 6566 0231 fdb9 b0bf 672d 10b8 4f61 7a3f
000005d0: d48d 7413 778f 893f 414b c407 f0ef b53f
000005e0: 9a27 f694 05fd 80bf d95e 0fc9 d69a 943f
000005f0: e21d 10cd 576d 9cbf 63ff 4429 c391 c03f
00000600: fe18 2044 5fa1 b13f 95d7 b04e b2e7 babf
00000610: 1625 52f8 c4f1 54bf a0d8 1218 2298 95bf
00000620: 2aa6 1049 564b bbbf da39 90ef 7802 943f
00000630: 1e1b ed9c a8d6 a13f 39ec 1374 e65a 843f
00000640: 149a 2ae7 6a69 a33f b3ab 6751 55b7 833f
00000650: c69e 824e 4583 73bf f1f3 3977 d747 7e3f
00000660: 3ca5 6cb0 cba6 ad3f 5130 4bd9 5967 703f
00000670: d0b9 33a5 4552 9a3f be26 104c 2528 a1bf
00000680: 640b c936 be14 4d3f d123 22dc f92f a7bf
00000690: 59bb 7062 a5a1 b0bf 4862 9740 bbfc b1bf
000006a0: f278 4ff1 1cd6 b33f e135 d482 3c1f bb3f
000006b0: 6720 c029 77e9 953f 5a8a 1f5f bd5e b03f
000006c0: efd4 433d 6bf8 a03f 164a 7797 afed 5d3f
000006d0: 919f 593a 128c aebf d85f b146 f50c 843f
000006e0: 78d2 a08f d01a a2bf c3d3 6183 f052 aabf
000006f0: 79fb ad23 a6c7 a7bf 2f9b 3666 28c4 9c3f
00000700: c24e f38c 74a0 a5bf 9e48 501a 4ce2 84bf
00000710: 7ca2 efac 81e2 973f c2fa 4b36 0d8d b3bf
00000720: db96 a391 5cfd 703f 70c9 5b72 5b04 7e3f
00000730: c2cb 4be8 55bd 8cbf 97fc 866b 852c bf3f
00000740: 6b59 9acb d943 91bf cf0a 34b9 eb3e 7a3f
00000750: c228 7976 dbd1 883f 0cea 9e91 db1a a3bf
00000760: b41a 25c9 b563 713f 3eb7 9690 4263 913f
00000770: 097e ac75 c922 a13f 3f51 a771 3f19 b03f
00000780: efc5 d19f 6060 b03f d78d 8489 787c a5bf
00000790: 2547 f9e6 e9be b0bf 66b5 3fbd 9e82 b3bf
000007a0: f5e4 2bea 9855 7e3f 2db0 99b4 22e9 903f
000007b0: 34b0 ab82 1a06 a13f 7da0 7a44 e74f bebf
000007c0: 5a60 9632 3b62 86bf 4989 43b9 ca47 6a3f
000007d0: 8303 3590 eec9 b4bf bdf3 4df7 a096 b03f
000007e0: 10f3 56f6 e9e1 72bf 665f 132e 159b b93f
000007f0: b7fb 585b 5443 693f 7810 c18b 9000 b13f
