W3.npy (npy, 1728 bytes, 1 tensors)

array f8 [10, 20]
-0.004643848418169541 -0.1006486936424805 -0.01879632716445363 0.022051915144599178 -0.07245728967624367 0.03435816876368895 -0.01782952434097977 -0.1615035795491955
0.18217239567180554 -0.07085937565810307 0.04246536836874931 -0.03946519371311158 0.04825523564074785 -0.14271444767806984 0.045382522351378386 -0.03621371672311519
0.05790411941209154 -0.06215846139239934 -0.014968990868567955 -0.015935206709789696 -0.04464409358198214 0.08511979074958193 0.09512459513848272 -0.005083903058769166
-0.06760204255419773 0.06228321881213941 -0.028359220900093938 -0.05024095300445325 -0.11349326732329652 -0.06439453929032524 -0.01549951874687425 0.07469478593809029
0.11865647918579396 -0.07650471083365619 0.005003785840385761 -0.08639091417940897 -0.026465809121192153 -0.13902343357833477 0.0026876968291693853 0.0023275712992781744
0.0642927750534748 0.12635362464696956 -0.07214523803708453 -0.00039824252916294197 -0.028631155483204846 -0.11884200330342944 0.09988749745318536 -0.030034328007731464
0.034312554081839905 -0.011422880440152524 0.05472997371877816 -0.02846676726441435 -0.03158344806891678 0.07918574161254316 -0.04515441723568331 0.0014982032605972456
-0.053764481731672746 0.058158674288759635 0.016533196639275723 -0.01058276065420245 -0.012083395341882382 0.05321428397861246 0.03506156796850844 -0.01105796872227199
0.20671549691953534 -0.05653129193684373 0.09849086250246057 -0.01710011340646193 -0.03657420855640902 -0.01689745660913117 -0.05243646894984833 0.02083770466510818
-0.07421995474017146 -0.007957210788886318 0.007849276613219998 0.02247602469149979 0.037579271552697496 0.004476881752198352 0.00659814448759499 -0.021344388427260587
0.005392589019045874 -0.09268454885503416 0.011857649644318282 -0.002034093085091821 -0.048433159538717546 0.04230632004956029 -0.010956913568342073 -0.002739640097030951
-0.05530967736196101 0.17348944264726468 -0.08080109355994726 0.03919237495828866 -0.02404692760414422 0.006257462481777389 -0.06535693090076583 -0.002180424221026744
-0.07511042178032773 0.17513067561787393 0.02450257634763451 -0.007671463464439426 0.024794197027126635 -0.10452984821128317 0.02605816336415028 -0.005847017218368239
0.167701884393417 0.0633478251801214 -0.03262779966191824 0.19249523678845196 0.02193960787346794 -0.038602746821791094 0.03870580576853754 -0.0880325894357305
-0.02112988140664188 0.016041572063077433 0.03171739382827711 0.02229542151087553 0.05102900349452318 0.00034495704125697566 0.0006160438015169197 0.03756626623784703
-0.033985854850468435 -0.08939405148549637 -0.005196494949264776 0.015626209157103516 -0.07571224351538951 -0.11950586757294096 -0.050960423466736134 0.08870336025784864
0.01968286660465585 -0.09138445345524607 0.14669064694252548 -0.054720996294050195 0.08092366673515682 0.10456074680117235 -0.05138199531230265 -0.05243646116863512
-0.05684129219129504 0.11181658344003549 -0.020163234337249477 -0.008365820935937126 0.12370801462808843 0.010859088988534549 -0.0021690016927522738 0.0025156671038065797
-0.1357573233550823 0.08342441552176133 0.07512667304180945 -0.011246862576048356 -0.09620358473126811 -0.02219820289467223 -0.02288155070635289 0.04858495634986782
-0.07530918796359477 -0.027458609510150334 0.04896476902523952 0.1018417970704125 0.05337799002581776 -0.02694650918757214 0.009042142475399953 0.028669471323643923
-0.013884700537965073 0.07543060964500842 -0.12831073474307245 0.017331378194341437 0.07777070333041587 0.008112416714855509 -0.0829739180981328 0.030302199538817767
0.07372602270870314 0.023966824632102982 -0.009215802317005677 0.08719693444777471 0.05815249392602144 0.029920505410459052 -0.0365201743054479 -0.06868042012090249
-0.04456684229023832 -0.0616651458668886 -0.02158274091296114 -0.029882185217833528 -0.09324202814005533 0.02698449038505336 0.030248770352721912 0.005564826908004509
0.02198204187006834 0.03233148808223289 -0.08787766645837031 -0.006011179715933162 0.00783555322958658 0.14031841230214423 -0.06884709387519763 -0.041167278401405744
-0.1024743718952657 -0.02202517309816438 0.029089644331484105 0.09329660554805871 0.08630359425193165 -0.02913323041970777 -0.0336392803622898 0.006301523205116194
00000000: 6a81 5691 6d05 73bf 265f 94df 1cc4 b9bf
00000010: d331 d329 583f 93bf aadd 70f9 c694 963f
00000020: f129 8499 8f8c b2bf 4588 61d6 6497 a13f
00000030: 6c7d ca1f e741 92bf b1e4 2c38 26ac c4bf
00000040: f07a d2d0 6c51 c73f 3008 110d d723 b2bf
00000050: 4876 b650 05be a53f 38ff a728 c834 a4bf
00000060: 7025 e005 e9b4 a83f 6cd5 b88e 7744 c2bf
00000070: 1d4a 9ec2 603c a73f 491a fcb1 9a8a a2bf
00000080: 0573 5bd6 9ba5 ad3f a137 b3dd 3bd3 afbf
00000090: 8081 e0f1 0fa8 8ebf 2db6 b19e 5151 90bf
000000a0: 8ad1 c933 97db a6bf 7c06 831d 69ca b53f
000000b0: 013f 2ae1 155a b83f 8aa4 f9d5 dbd2 74bf
000000c0: 95bf e911 5e4e b1bf 4487 c607 96e3 af3f
000000d0: 2949 3919 330a 9dbf 48e3 25a4 2eb9 a9bf
000000e0: 2541 780f e50d bdbf b8fd 4a18 297c b0bf
000000f0: 72f6 f830 36be 8fbf 662b c98e 321f b33f
00000100: cbbd 8f61 4560 be3f d93e 050f d095 b3bf
00000110: 147b a688 d97e 743f 6c75 1207 b71d b6bf
00000120: ea00 8d62 da19 9bbf 9b5c 4c16 85cb c1bf
00000130: 3778 733f 8204 663f e516 8153 4511 633f
00000140: 4448 39c6 7d75 b03f 5d7e cb06 5b2c c03f
00000150: 1a71 ee3d 1c78 b2bf f354 7da3 6619 3abf
00000160: 05c9 c951 7c51 9dbf 8150 94f5 6d6c bebf
00000170: 0f39 d71e 3a92 b93f abc1 33a2 51c1 9ebf
00000180: 065a 3f43 6a91 a13f 5124 550f e164 87bf
00000190: cc57 772e 9105 ac3f c6aa b169 6426 9dbf
000001a0: 2111 1aa9 b42b a0bf 9c0e 894a 8445 b43f
000001b0: 682a 98d2 7a1e a7bf 121c 7380 eb8b 583f
000001c0: 27a6 72a5 0487 abbf 7e0e 1948 f9c6 ad3f
000001d0: 52c3 740b 14ee 903f a620 4a17 6aac 85bf
000001e0: f14f 8bde 2dbf 88bf 5b84 bc12 e73e ab3f
000001f0: fedd 8aff 96f3 a13f 5ec5 2d70 8fa5 86bf
00000200: f242 6c45 a775 ca3f c584 2364 abf1 acbf
00000210: 8324 6779 b236 b93f cbc5 5a2f b182 91bf
00000220: cff3 40cb dab9 a2bf 1152 161e 914d 91bf
00000230: 31bf 83ee f3d8 aabf 69cb 3db0 7a56 953f
00000240: b4d3 5136 1400 b3bf 755c d8c0 de4b 80bf
00000250: c4ec ce12 4813 803f 21f0 f97b f403 973f
00000260: e415 a71c 973d a33f 4586 6bcb 5956 723f
00000270: 7db5 9dec a706 7b3f 7a29 fea8 4ddb 95bf
00000280: 3a21 a417 8a16 763f 6648 2db2 2cba b7bf
00000290: db2c 70cb d248 883f db30 e168 cda9 60bf
000002a0: 0480 8528 3bcc a8bf 15cf 0d8a 2ca9 a53f
000002b0: 0c6e 870b 9470 86bf b96b d313 7171 66bf
000002c0: bf07 d8ce 8c51 acbf c285 2fed e634 c63f
000002d0: b12d 5266 61af b4bf 3297 65e1 0511 a43f
000002e0: 4d2d 84fe c19f 98bf 8261 71cb 6ca1 793f
000002f0: 0425 c958 3bbb b0bf 4c1b 1057 aedc 61bf
00000300: 4ca1 22c5 6f3a b3bf 420f 2796 ae6a c63f
00000310: fac5 5210 3417 993f c65b 13cb 1c6c 7fbf
00000320: 8bc7 7265 a663 993f 56f7 85d7 77c2 babf
00000330: ae7a c5bd fdae 9a3f 1370 b6bb 0af3 77bf
00000340: 1641 795e 4177 c53f 61dd 6b25 9037 b03f
00000350: c60c fa48 97b4 a0bf dd32 5215 afa3 c83f
00000360: 41e5 3629 5677 963f ff4d 453e bdc3 a3bf
00000370: 8fe4 e153 3fd1 a33f fcd0 9bc4 4d89 b6bf
00000380: c985 7056 12a3 95bf 1fa4 8cad 336d 903f
00000390: 02e2 6922 433d a03f cb7f f568 9cd4 963f
000003a0: cb19 503a 7920 aa3f e9fb f135 6b9b 363f
000003b0: 075c 7efd bf2f 443f 9748 d9b9 e23b a33f
000003c0: adfe 370e 9866 a1bf 464f 964f 87e2 b6bf
000003d0: 8255 c67d eb48 75bf 352e 2925 5100 903f
000003e0: c72d cea9 e061 b3bf 4ce8 e7c0 ef97 bebf
000003f0: 7121 5c10 7c17 aabf e04e 5a6f 43b5 b63f
00000400: d121 6fd1 be27 943f 6aff f3b6 f864 b7bf
00000410: 36a5 9f55 c2c6 c23f 5897 f9f2 6304 acbf
00000420: 2793 19d6 69b7 b43f c9d4 f43b 7ec4 ba3f
00000430: d96a f0aa bd4e aabf 94ad acab f3d8 aabf
00000440: ba48 0c46 4d1a adbf 1d81 06f9 02a0 bc3f
00000450: 2f83 3dc0 aba5 94bf 5ea3 977a 1922 81bf
00000460: afaa 1415 54ab bf3f a095 8f40 4a3d 863f
00000470: 3b1a bbea b9c4 61bf 0ef7 077e bc9b 643f
00000480: 6554 00f8 7e60 c1bf dc97 5a70 4d5b b53f
00000490: 6298 c56b 803b b33f 47e9 9257 9808 87bf
000004a0: 50c3 2d52 cca0 b8bf 21b1 d92d 20bb 96bf
000004b0: 7fb9 dcdf 426e 97bf 9156 339d 20e0 a83f
000004c0: 4157 6483 7647 b3bf 40e2 5b17 1c1e 9cbf
000004d0: e33b 3d03 e911 a93f b685 c8d3 4d12 ba3f
000004e0: 5d65 f922 5c54 ab3f 62d5 ce9e dd97 9bbf
000004f0: 15ad bdd1 af84 823f f925 eaa6 875b 9d3f
00000500: 3771 cdf5 946f 8cbf 54eb 8aa1 6b4f b33f
00000510: bd3e b974 7c6c c0bf 4f3f 281a 51bf 913f
00000520: 251c 64e3 c7e8 b33f bac8 da23 3e9d 803f
00000530: cf07 a758 c73d b5bf 8779 1030 8a07 9f3f
00000540: 83e5 6568 b5df b23f 4176 ef5f c28a 983f
00000550: 76a9 760c bcdf 82bf fcbf c3cd 8952 b63f
00000560: e6aa 2fe7 29c6 ad3f 13f0 de20 7ba3 9e3f
00000570: 177e 92b4 c5b2 a2bf 1979 4b3e 0a95 b1bf
00000580: 9fc0 3e14 77d1 a6bf 594b 9af1 9292 afbf
00000590: 704f 8439 c919 96bf ce74 f980 6f99 9ebf
000005a0: 6868 79a5 b5de b7bf 43e7 cf7e d2a1 9b3f
000005b0: 87f9 a29d 88f9 9e3f 6b96 3ed9 24cb 763f
000005c0: 9b98 b9db 7582 963f b66e e3b7 c08d a03f
000005d0: 94cc 7c97 267f b6bf ac1d a5c4 2d9f 78bf
000005e0: e7e7 ef26 160c 803f 23a3 ee27 f4f5 c13f
000005f0: 9a5d 9e90 f69f b1bf 8c79 cca4 e013 a5bf
00000600: 04e3 f7ab c23b babf f2d7 9458 c48d 96bf
00000610: 0557 39fc acc9 9d3f 161f a84d 49e2 b73f
00000620: 5edc d60a fe17 b63f ae95 84ff 19d5 9dbf
00000630: 80b5 08f2 2a39 a1bf d39b 4b41 a0cf 793f
